…
lhost:8080/"},"id":"USoqJ80ZRRoe","executionInfo":{"status":"ok","timestamp":1704136421143,"user_tz":180,"elapsed":1772,"user":{"displayName":"André Gustavo da Silva","userId":"11095299052392562176"}},"outputId":"ee6fb542-dc5c-404f-ab51-ade4c559abc3"},"execution_count":null,"outputs":[{"output_type":"stream","name":"stdout","text":["Model: \"sequential\"\n","_________________________________________________________________\n"," Layer (type)                Output Shape              Param #   \n","=================================================================\n"," conv2d (Conv2D)             (None, 99, 99, 32)        544       \n","                                                                 \n"," max_pooling2d (MaxPooling2  (None, 24, 24, 32)        0         \n"," D)                                                              \n","                                                                 \n"," zero_padding2d (ZeroPaddin  (None, 26, 26, 32)        0         \n"," g2D)                                                            \n","                                                                 \n"," conv2d_1 (Conv2D)           (None, 24, 24, 64)        18496     \n","                                                                 \n"," max_pooling2d_1 (MaxPoolin  (None, 8, 8, 64)          0         \n"," g2D)                                                            \n","                                                                 \n"," dropout (Dropout)           (None, 8, 8, 64)          0         \n","                                                                 \n"," conv2d_2 (Conv2D)           (None, 8, 8, 64)          65600     \n","                                                                 \n"," conv2d_3 (Conv2D)           (None, 8, 8, 128)         204928    \n","                                                                 \n"," max_pooling2d_2 (MaxPoolin  (None, 4, 4, 128)         0         \n"," g2D)                                                            \n","                                                                 \n"," dropout_1 (Dropout)         (None, 4, 4, 128)         0         \n","                                                                 \n"," conv2d_4 (Conv2D)           (None, 4, 4, 128)         409728    \n","                                                                 \n"," max_pooling2d_3 (MaxPoolin  (None, 2, 2, 128)         0         \n"," g2D)                                                            \n","                                                                 \n"," dropout_2 (Dropout)         (None, 2, 2, 128)         0         \n","                                                                 \n"," flatten (Flatten)           (None, 512)               0         \n","                                                                 \n"," dense (Dense)               (None, 512)               262656    \n","                                                                 \n"," dropout_3 (Dropout)         (None, 512)               0         \n","                                                                 \n"," dense_1 (Dense)             (None, 256)               131328    \n","                                                                 \n"," dropout_4 (Dropout)         (None, 256)               0         \n","                                                                 \n"," dense_2 (Dense)             (None, 128)               32896     \n","                                                                 \n"," dense_3 (Dense)             (None, 42)                5418      \n","                                                                 \n","=================================================================\n","Total params: 1131594 (4.32 MB)\n","Trainable params: 1131594 (4.32 MB)\n","Non-trainable params: 0 (0.00 Byte)\n","_________________________________________________________________\n"]}]},{"cell_type":"code","source":["label_encoder = LabelEncoder(
…
